chatbot_model.pth (torch, 64541 bytes, 6 tensors)

fc1.weight f4 [128, 52]
00000000: 2f23 813d 4b89 10bd 7056 8cbd ee88 2f3d
00000010: 7eb3 823d fe2b 44bd 877f 6cbd 4567 5a3e
00000020: 09a8 213e 5e5a fd3d 29a5 1a3e bd58 20bd
00000030: a4e8 5f3e c66e 14be 507e 07be 458a e9bc
00000040: 04d4 c8bb 882f fb3d 9254 0bbd 8fb1 8cbd
00000050: 20cb 16be 45b2 b3bc f842 c1bd 8e08 86bd
00000060: 1f54 f03d 649c 1d3d caf1 683d 0925 293d
00000070: ef30 c53d b221 99bd 532a 03bd 34ce 47bd
00000080: 9c7d 553d 4f35 65bd a4e7 a83c d7f8 1f3d
00000090: a783 913b 1d42 883e 41f4 cebc 964d dc3c
000000a0: cf48 c1bc 87dd a9bc 55ea bebc 32b1 ca3d
000000b0: f5d4 c4bd 01d0 253e 2ed0 4fbe abfb 29bd
000000c0: 0b29 9bbd 5314 0abe bb22 0c3e 0553 5b3d
000000d0: 5525 553d cc70 4c3e 5d25 183d 30b6 703d
000000e0: 1e01 9c3d a8d8 04be 1fac 213e f297 0b3e
000000f0: e43a 133d 05eb 083e f124 553e de8b 753d
00000100: b7b9 04be 6c43 4abd 3026 ea3c c7f9 243d
00000110: 26cf ae3d 0a0f 1e3e 326c 65bc a6ed 133d
00000120: 3469 693c cae3 60bd 04aa 6cbd df89 c63d
00000130: 85c8 db3d 6a24 05be a019 0cbc 4654 643e
00000140: f39b 8f3d 10df 1dbc 797c d33c f209 d23d
00000150: 897f a0bd 3e35 eebd 1ce6 923d 44d8 58bc
00000160: 5244 243e e211 673d 855f 36bd 178b c2bd
00000170: 537b 063d ab3e 1abe bf05 c1bd bdb4 c73d
00000180: 5a9d 5b3d e227 1c3e a656 95bd 72d2 debd
00000190: 9931 d53d fa8a 1c3e 15e2 2b3e 36df a4bc
000001a0: 8179 a73d fe57 5d3e 2816 ce3d 7d29 1f3d
000001b0: bf2f 1bbe c94d d7bd 5f61 a8bd b7e4 233e
000001c0: 4f17 ad3d ef08 3e3e 55a8 7b3d 90f8 1a3e
000001d0: 0a2a 2f3e 42ad 673d a463 c93c 168c 01bd
000001e0: 8d54 22be cbc1 423e e3e1 56bd f0bd 463e
000001f0: 32ef bbbd 7ced 84bb a14c dbbd 02ed 853c
00000200: 9362 dd3d 6912 bb3d cf2f dcbd 8658 87bd
00000210: fd75 393d 983d 223e a781 04bd e94e acbd
00000220: c862 303d 219d a43d 69e1 273d fca0 443d
00000230: 4aad 5ebd 080c 083e 80ed fabd 36c3 b33d
00000240: b724 f1bd 7643 c03d e159 e33d 0f8e e2bd
00000250: a690 c6bc f8f2 e83d 89c8 bf3c 93cc c5bd
00000260: 1eb3 0d3e 4b9c 24bd d60d 653c 2916 11be
00000270: 1340 873d 77be 1c3d 6fbe 3b3e c966 483d
00000280: 8fe9 173d 95d1 1d3e 00dd 123e e331 d8bd
00000290: 69c6 af3d d0b7 8dbd 59ea b9bd f149 413e
000002a0: 33dd 9ebd 2fa6 89bc 577c 99bd 79d3 f43d
000002b0: b801 813d 1d24 aabd d4fa cbbd f524 83bc
000002c0: 0177 abbd b88d 99bb 5019 e0b9 2bef 4fbc
000002d0: d78b 9dbb b68a 553e fd30 f8bd 23c5 183e
000002e0: ab7e 0ebe eb7a 693e 889e 0f3e d244 833d
000002f0: b012 b83d 5ffd 5a3e 292b ef3d 5769 0abe
00000300: 4030 d33c c022 fbbd d3c1 323e ea04 6dbd
00000310: 378a 403e 8146 ca3d 8dfc 90bd 61de 1b3e
00000320: 7e36 1b3c 0e60 f23c 4ea4 6d3e 702f ecbd
00000330: fb95 dcbd b2f5 d43c 5118 3c3d 3935 ef3d
00000340: e800 f53d 4ae2 93ba 0d54 a9bd c9dc 0e3c
00000350: 1965 ca3d cc95 413e d20c 1ebd 8fad 90bd
00000360: fa41 9bbd 19e5 84bd dbe1 c7bd d6f7 693d
00000370: 18cf 913c 0166 e5bd e03b 003e cd9c dfbd
00000380: 6814 0cbe 699c f53c b0cb 68bd 8aae 58bd
00000390: 8c86 a6bc bd66 81bd e6c1 a2bd d454 e63c
000003a0: 42cf b3bd 0140 483e 3b2a d9bd e547 363d
000003b0: 9ad1 b63d 20ae 97bc 7406 16be 7446 093e
000003c0: f95e cbbd f264 8fbc 03ce 05be 702e 8dbd
000003d0: 1d08 08bd d880 f0bd ed4e cdbd 6770 113e
000003e0: 4f6c 49bc cfb1 943d 3623 983c e313 903d
000003f0: c2b5 b33d 3268 1dbd 40ce 90bd 6f82 a1bd
0.06305539 -0.035287183 -0.06852424 0.042855196 0.06381892 -0.047893517 -0.057738807 0.21328457
0.15786757 0.12370752 0.15102066 -0.039147127 0.21866089 -0.14495382 -0.13231778 -0.028508315
-0.00612879 0.12264925 -0.0340162 -0.06869804 -0.14725924 -0.021935591 -0.094366014 -0.065446004
0.11734795 0.038479224 0.056871213 0.041295085 0.09628474 -0.0747713 -0.032022785 -0.048780635
0.052121744 -0.055959042 0.020618267 0.03905567 0.004440743 0.2661294 -0.025262954 0.026892465
-0.023594288 -0.020735515 -0.023305098 0.098970786 -0.09610931 0.16192628 -0.20294258 -0.041499775
-0.07576188 -0.13484316 0.13685124 0.05354597 0.052037556 0.19964904 0.037145007 0.058767498
0.076174006 -0.12973273 0.15788315 0.13632181 0.035944834 0.13370903 0.20814873 0.05994784
-0.1296147 -0.049380705 0.028582662 0.04027727 0.08535604 0.15435424 -0.014002847 0.03611531
0.014246274 -0.054904737 -0.057779327 0.096942656 0.107316054 -0.13002172 -0.008551031 0.22297773
0.07012167 -0.009635702 0.02581619 0.10255803 -0.078368254 -0.11631249 0.07172796 -0.0132351555
0.16041687 0.05641354 -0.04452469 -0.094991855 0.032832455 -0.15062968 -0.09424924 0.0975127
0.05361686 0.15249589 -0.072919175 -0.10879983 0.104098506 0.1528739 0.16785462 -0.020125967
0.08177472 0.21615598 0.1006282 0.038857926 -0.15154932 -0.10512883 -0.08221697 0.16005217
0.084517114 0.18558095 0.06143983 0.15133882 0.1710588 0.056561716 0.024583645 -0.031627737
-0.15852566 0.19019239 -0.052461516 0.19408393 -0.09176482 -0.0040566307 -0.10707975 0.016348366
0.10809817 0.09134371 -0.10751306 -0.066086814 0.045278538 0.15843809 -0.03235021 -0.084134884
0.043062955 0.080377825 0.040986452 0.04800509 -0.05436448 0.1328584 -0.12252331 0.08777468
-0.11774581 0.09387867 0.111011274 -0.11062252 -0.024238896 0.113744676 0.023411052 -0.0965816
0.13837859 -0.040188115 0.0139803495 -0.1416861 0.06604018 0.03826758 0.18334363 0.04892615
0.037087973 0.1541198 0.14342117 -0.1055639 0.085827656 -0.06919825 -0.090779014 0.18875863
-0.07757034 -0.016802875 -0.07494419 0.11954398 0.06299156 -0.08307669 -0.09959951 -0.016008833
-0.083723076 -0.0046860836 -0.0004274347 -0.012691299 -0.00480793 0.20853695 -0.12118719 0.14918952
-0.13915507 0.22800796 0.14025319 0.06409611 0.08987939 0.21385716 0.11678154 -0.13516746
0.025779843 -0.122624874 0.1745675 -0.057866015 0.18802725 0.09876729 -0.0707942 0.1522155
0.009473441 0.029586818 0.23207209 -0.115324855 -0.10770794 0.025996063 0.045921627 0.11680073
0.119630635 -0.0011282649 -0.082679845 0.0087196315 0.09882564 0.18904799 -0.038586445 -0.07064354
-0.075809434 -0.064890094 -0.097598754 0.05712112 0.017798945 -0.11201096 0.1252284 -0.10918579
-0.1367966 0.029981809 -0.056834877 -0.05290083 -0.020327829 -0.06318424 -0.079471394 0.028116621
-0.08779766 0.19555666 -0.10603758 0.044502158 0.08926697 -0.018515646 -0.14650899 0.13405782
-0.09930224 -0.01750419 -0.13066868 -0.06893623 -0.033210862 -0.11743325 -0.100248195 0.14203034
-0.012293889 0.07260477 0.018571477 0.07035043 0.08774902 -0.038429447 -0.07070589 -0.07886206

fc1.bias f4 [128]
00000000: daa9 0d3e 2b09 603d 7550 d43d e7e6 aa3d
00000010: a44f 31bd caf5 653d 6729 613e 277a aabc
00000020: 0d1f 08bc e80b 17bd e12f ed3d b8b1 663e
00000030: ab01 333e b8d4 4d3e 008c 143d 4351 d93d
00000040: f81b 3a3d c686 2c3d bc03 62bd cd35 6bba
00000050: 1cbe fe3c 9f5a 95bc b902 6e3e dc5e a93d
00000060: 44a0 1f3d c13b c63d 4e76 6e3e 64f7 ee3d
00000070: 5534 813d 3492 093d 7622 5a3d 2287 a0bd
00000080: 3d34 c33d 8748 843e dd37 283c 2b23 e43d
00000090: ade8 a83c ef11 f43d 1a11 1f3e bf9f 123e
000000a0: f671 0a3e ce24 833d 7acc 3c3e 7011 763d
000000b0: 0a78 093e 1fa8 1abd cf72 ae3c cd2f ae3c
000000c0: 3bd3 7a3d 9953 be3b ea64 313e 451b 223e
000000d0: 1692 ee3d 0731 d63d c549 353c af58 85bd
000000e0: 43e9 7cbd 9ff2 173e adcd 3a3b bac1 2c3d
000000f0: f3d7 f93d d962 473e 531e e63d a4a1 f53d
00000100: 15a1 f1bc 3cb5 d03d dcda 343e 5d06 993d
00000110: b3f7 003e b448 ba3a c816 b93d 0a15 803e
00000120: 1dad 803d 2c92 133e 3fdc 2a3d b807 76bd
00000130: 57b1 433e 7e7e 473e 053b 163e 8110 813d
00000140: b355 573e bccb bf3d 2a27 b13d f86a f53d
00000150: b78a 893d 7a34 1d3d 5d03 da3d 414c cd3d
00000160: fb27 433d e5db 363e 262d 083e 5ab6 bd3d
00000170: e8c8 213d 34f5 203e 9008 2b3e 675e b53d
00000180: beed 423e 27c1 113d 8efc cbbc 44fe 583e
00000190: 47b0 403e 8b62 3a3e 4ffd 133c 9863 273e
000001a0: 8736 493d 52d6 373e 14a1 b73d 1f83 503d
000001b0: 1505 7c3d d94f 1f3e 3b65 183e 327f 453e
000001c0: e21b f03d 41ea 523c 73bd 273e 77c6 293d
000001d0: e573 9a3d 3296 103e dc73 183e 16aa f03d
000001e0: f3f0 1bbc f537 7e3e 304d 293e 568f 0b3c
000001f0: 51f1 6c3e eea9 0e3e 8d9f 973c dd12 203e
0.13834324 0.054696243 0.103669085 0.083448224 -0.04328884 0.056142606 0.2198845 -0.0208102
-0.008308184 -0.03687659 0.11581398 0.22528732 0.17481105 0.20100677 0.036266327 0.106112026
0.04543683 0.042120717 -0.055179343 -0.00089725555 0.03109651 -0.018231688 0.23243226 0.08270046
0.0389712 0.09679366 0.23287317 0.1166828 0.0630881 0.033586696 0.05325552 -0.078382745
0.09531448 0.25836584 0.010267225 0.1113952 0.020618761 0.11917483 0.15533867 0.14318751
0.13520035 0.06403504 0.18437377 0.060075223 0.13424698 -0.03775799 0.02129498 0.021263028
0.0612366 0.0058083055 0.17323652 0.15830715 0.116489574 0.1045857 0.011064951 -0.06511056
-0.061745893 0.14838646 0.002850394 0.04217694 0.12199392 0.19471301 0.11236253 0.11993721
-0.029495755 0.10190818 0.17661613 0.07471917 0.1259449 0.0014212341 0.09037548 0.25016052
0.06283019 0.14411229 0.04171395 -0.060065955 0.19110619 0.19481847 0.14670952 0.06301976
0.21028785 0.09365031 0.08650048 0.11983293 0.06715911 0.038380124 0.10645173 0.1002431
0.04764555 0.1785732 0.13298473 0.092632964 0.03949824 0.15718538 0.16702485 0.088558964
0.19036004 0.035584595 -0.0249007 0.21190745 0.18817244 0.18201654 0.009032561 0.16346586
0.049124267 0.1795285 0.0896627 0.050906297 0.061528284 0.15557803 0.14882366 0.19286802
0.11724068 0.012873233 0.16380863 0.041449036 0.075416364 0.14119795 0.14887947 0.11751191
-0.009517896 0.24826033 0.16533351 0.008518061 0.2313893 0.1393201 0.018508697 0.15632196

fc2.weight f4 [64, 128]
00000000: b6e9 47bc e5f4 5cbd 185a 87bd f644 57bd
00000010: 89ad 6c3d 0451 47bd d16f f03d 13d8 563b
00000020: c729 65bd 014b 86bd 49a1 ec3d d92a 203d
00000030: 2a20 893c 0cd0 9f3d 995b 933d 1714 713d
00000040: d0eb acbd acf5 a8bc 95ae 063c 4bc8 8cbc
00000050: 23f2 c9bd 3749 983d a8e7 53bc cc06 cabc
00000060: 852a 293e 0fe4 5f3d 011c 9fbc 0d08 18bd
00000070: 123c 2b3d 1c9b 03be 6a71 2e3c c46a 5cbd
00000080: 94ad 02be 8c4e 383d 5525 293d cde7 efbc
00000090: df61 483e aac7 413d 4383 a23d 8bf6 c33d
000000a0: 57f3 4a3e 7682 41be 9188 193b 5e84 1cbc
000000b0: 700c 8c3d 22cd bebc 135c 7ebd 6cd4 b73d
000000c0: ed55 04be f842 edbd 8800 3b3e f6a1 bb3d
000000d0: 1b0d ad3c 937f febd f0d6 cebd c7ec fc3d
000000e0: 830a 3e3c d501 80bc 0459 db3c 4b79 fa3d
000000f0: ffbf 003e 79f8 173d 8c27 343d 6f13 9b3d
00000100: 45dc 853c 168d 543d 1c0e 683d 2a3b 1bbe
00000110: 36f1 76bb a21a f9bd da00 94bd 30a3 bd3d
00000120: 03bd 433d 85ce 03bd 0604 843c 7e43 2bbd
00000130: d878 afba 6854 673d b6d0 4a3b 22c9 72bd
00000140: 6a30 163d d420 943d 3c72 293e ffef 3d3e
00000150: 129c 523d 5b5e 01bd 5160 383e d964 c83c
00000160: b552 9abd d9cf c93d 848f 233e 78c5 79bc
00000170: 45f2 95bd 0f2a 58bd 9207 183d 69eb 003e
00000180: 948c 183e 31aa c13c 5285 303d b1aa a83a
00000190: c40f 6b3d b95b 30bd 33bd 86bd 311c 9f3c
000001a0: df35 14bc 0a23 e3bc 3c17 bebb 3258 f1bd
000001b0: 5c91 10be e06c 573d 0b0a c53d 8a32 fdbd
000001c0: 2ae7 7d3b e9b1 183d d3a3 bd3d 0386 af3d
000001d0: f7d6 8dbd 7abd 4e3d 13c6 62bd 4de0 86bc
000001e0: 7975 72bd 34d0 053d 33d3 c33c c44c 023d
000001f0: 96cd 613c 8307 28bd 5fed 81bd 1f20 d9bb
00000200: 4cea fc3d d840 403e 4a3a 83bd 92f7 76bd
00000210: d37c 69bd 3e4f 033e 4e49 0e3e a5e1 97bc
00000220: 4a6d f33b 0d57 223d 10ab 1a3e ea21 7f3e
00000230: d720 f9bb 98e5 12bd be03 683e 082a cf3b
00000240: fcd2 023e 903d bdbd ec80 93bc e2f3 bebd
00000250: 61e4 313e 0547 3cbb 5b53 b43d e8d4 183e
00000260: 5a99 233e 5a19 423e bbcb dd3d a5cc 1e3e
00000270: 42e8 923d 78e0 af3c 20e4 d53d 0771 c2bd
00000280: 8f67 bc3c c0fa 2f3e 9399 af3d 4423 613d
00000290: 089f 8fbd d2b2 873d 29fb ce3d 95e4 253e
000002a0: 1134 ca3d 139e f93d 6f4b 2c3e fe05 bf3d
000002b0: 8c82 d73d 5e3d 083d 46b7 c5bd 0ff9 243e
000002c0: 0eec 2e3d fd03 aebd a8d2 eb3d 37db f13d
000002d0: 36dd 193c 4827 de3d 1993 02bd dec0 453d
000002e0: b13d 893d b897 943d 4d6d a3bc 6473 a93d
000002f0: 6b86 a3bd 8215 b83d 0811 e43d 2173 0e3e
00000300: 81cf ff3d a9d9 c53d ede1 023e c556 a7bd
00000310: 62a7 9e3d b5f7 d2bd 242a 243d ccf0 2e3e
00000320: df2b 08bd cc3f 5c3e 6ee5 34bc f7f6 283d
00000330: 049f 31bc 8627 233e dd28 97bc 8a3a 363e
00000340: dd8e f93c 7538 86bc ddbe 34bd 0600 0c3e
00000350: 46bc d83d d93c e13d df76 093c b405 273e
00000360: ad4f 963d 4a48 743d b2df 4fbd dcd7 4bbd
00000370: a32b ec3d 68cf efbc a85f 253e cbec ff3d
00000380: 63f1 ca3d 92c7 78bd f287 0b3e 38f8 e23d
00000390: c71f 2f3e 157b 58bc e524 723c 7bba 8fbd
000003a0: b82c c63d cc94 393d a803 5c3c 3b68 513c
000003b0: 8791 be3c 24fe 2abc b8ff b0bc 2352 a03d
000003c0: e000 16bd 4aa5 683d 9706 733e aeb9 733d
000003d0: ddc5 a83d 074f 52bd 658e 803d cc37 343e
000003e0: a60c 53bd 1193 633d a9ca 9c3d 34ba ff3d
000003f0: beac b23c 65dc 59bd 927c 33bd 456a 0c3e
-0.012201717 -0.053944487 -0.06608981 -0.052556 0.057782684 -0.048661247 0.11740077 0.00327826
-0.055948045 -0.065572746 0.115542 0.039103363 0.01673897 0.07803354 0.07195205 0.05885705
-0.08443415 -0.020624958 0.008220335 -0.01718535 -0.09860637 0.074358396 -0.012933649 -0.024661444
0.16520126 0.054660853 -0.019422533 -0.037117053 0.041805334 -0.12852138 0.010647157 -0.053812757
-0.12761527 0.044996783 0.04129537 -0.029285336 0.19568585 0.047309555 0.079351924 0.09568509
0.1981939 -0.18897423 0.0023427347 -0.009553043 0.0683831 -0.023291174 -0.062099528 0.08976063
-0.12923403 -0.11585039 0.18261921 0.09161751 0.021124413 -0.124266766 -0.1009959 0.12349849
0.011599186 -0.015625874 0.026775844 0.12230166 0.1257324 0.037102196 0.043983027 0.07572066
0.016340384 0.051892363 0.05665408 -0.15159288 -0.0037680394 -0.12163283 -0.07226725 0.09259641
0.047787677 -0.032179374 0.0161152 -0.041812412 -0.0013387455 0.05647698 0.0030947155 -0.059273846
0.036667265 0.07232824 0.16547483 0.18548582 0.05141837 -0.031584125 0.18005492 0.02446215
-0.07535306 0.09854097 0.15972716 -0.015244834 -0.073216 -0.052774485 0.037116595 0.12589802
0.14897376 0.023640724 0.043095894 0.0012868253 0.057388082 -0.043056224 -0.06579056 0.019422622
-0.009046047 -0.027726669 -0.0058011096 -0.117844 -0.1411795 0.052594066 0.09621056 -0.12363155
0.003874252 0.037279043 0.092597626 0.085704826 -0.06925767 0.050473668 -0.05536468 -0.016464377
-0.059194062 0.03266926 0.023904419 0.03181149 0.013781926 -0.04102279 -0.06344103 -0.0066261436
0.12349376 0.18774736 -0.06407602 -0.060294695 -0.057003807 0.12823197 0.13895151 -0.018540213
0.0074287998 0.0396338 0.15104318 0.24915281 -0.007602792 -0.03586349 0.22657678 0.006322149
0.12775797 -0.09240258 -0.01800581 -0.09323861 0.17372276 -0.0028728854 0.08804961 0.14924967
0.15976468 0.18954983 0.10829874 0.15507753 0.07173206 0.02146934 0.10443902 -0.094942145
0.0229986 0.17185497 0.08574214 0.054965273 -0.07012755 0.06625904 0.10106499 0.16200478
0.09873212 0.121883534 0.1682565 0.09327315 0.10522947 0.03326165 -0.09654097 0.16110633
0.042705588 -0.084968545 0.11514789 0.1180939 0.00939112 0.10847336 -0.031878565 0.048279636
0.0670122 0.072555006 -0.01994958 0.08273962 -0.079846226 0.08988477 0.11136061 0.13911106
0.1249075 0.09660656 0.12781496 -0.08170847 0.077467695 -0.103011526 0.04007925 0.17084044
-0.033244964 0.21508712 -0.011041028 0.04125115 -0.010841135 0.15933046 -0.018452102 0.17795768
0.03046363 -0.016384343 -0.044127334 0.13671884 0.10582785 0.10997934 0.0083901575 0.1631077
0.07339416 0.059639253 -0.05075044 -0.049766406 0.115317605 -0.029273704 0.16149771 0.124963365
0.09909322 -0.0607372 0.13626078 0.110825 0.17101966 -0.013212939 0.014779304 -0.0701799
0.09676498 0.04530792 0.013428606 0.012781198 0.023262752 -0.010436568 -0.021606311 0.07828166
-0.03662193 0.056798257 0.23732983 0.05950325 0.082408644 -0.051344898 0.062771596 0.1759941
-0.051525734 0.055560175 0.07655842 0.12486687 0.021810886 -0.0531887 -0.04381997 0.13712414

fc2.bias f4 [64]
00000000: 5b20 863c 6b78 9a3d 7363 89bc 1d3b b43d
00000010: 5e7e 3cbc 9358 ee3d 4eee 9dbc 4059 183d
00000020: 68e3 1cbd 112b 3d3d af07 f33d e560 a63c
00000030: 81dc a13d 86da fc3d 8c74 1a3e a41d 233e
00000040: f143 bc3d 19c6 0c3c 1e06 a2bd 506d e03d
00000050: e0c4 023e 2c47 223c 4b27 d73c b6e1 83bd
00000060: 6bf0 993d 6c92 1a3e 9486 f23c 165d 643d
00000070: 988d 6e3c 9874 8b3d 3f93 363c 4dd8 063d
00000080: 7bbb 9f3d f760 1d3d 19d5 ee3d aad5 723d
00000090: 382a 8f3d b610 f03d a082 8c3d 0233 d03d
000000a0: 4886 3abd 08e0 0f3c bd6d ed3d 043d 0bbd
000000b0: 29a2 0d3d d542 d83c 8c84 f9bc 735e 053e
000000c0: 15bb d33d d903 143e 55a3 9f3d d653 d93b
000000d0: 75cc e83d b640 1cbc a0f6 843d 67ef bb3a
000000e0: 83ae 603d 6cb0 063d d8d1 b53c f8dc 9c3c
000000f0: bb0a 3bbd 72d4 bc3c 39e0 d53d 01bf 983d
0.01637285 0.07542499 -0.016771054 0.088003375 -0.011504738 0.11637988 -0.019278672 0.03719449
-0.03830281 0.04618365 0.118667 0.020309875 0.07903386 0.123463675 0.15083522 0.15929276
0.09192646 0.008592152 -0.07911323 0.1095835 0.12770414 0.009904664 0.026263854 -0.06439535
0.07516559 0.15094918 0.029605187 0.055752836 0.014560126 0.06809348 0.011143505 0.032921124
0.07799431 0.03842255 0.11661739 0.059285797 0.069904745 0.11721937 0.06860852 0.10165979
-0.045538217 0.008781441 0.115931965 -0.033993736 0.034578476 0.026399055 -0.030458711 0.13024311
0.103384174 0.14454593 0.07794825 0.0066323085 0.11367122 -0.009536913 0.064923525 0.0014338315
0.054853927 0.032883093 0.022194788 0.019148335 -0.04566453 0.02305052 0.10443158 0.07458306

fc3.weight f4 [5, 64]
00000000: 01ba 613e 6372 d1bb 268c 44be 43cc 5b3e
00000010: 1ddf 7bbe 229b 9a3d 2c74 22be b368 83be
00000020: 3f36 893d 5f2f 63be eaff 903d dc51 c63d
00000030: 808d 4ebe 3294 223e e1a8 623e 18e2 033e
00000040: a473 76be eceb 383e cde3 35bd de6e ad3b
00000050: fcd4 453e 318a 48be 3ba9 05be 97e1 35be
00000060: 45a3 65bd 1efa 783e 3d93 2abe b484 c33c
00000070: 46fb 6bbe b830 bb3d 04fd aabc ed1f 343e
00000080: 5170 bfbc 01be b5bd 1473 5b3e 2def 3a3c
00000090: 0143 8cbe da9b 823e 39e5 32be 769b 123e
000000a0: 1a94 00be aeb6 bf39 9846 1c3e 9a50 80be
000000b0: b398 4e3e 86f3 0a3c e76d ecbd 1c62 193e
000000c0: 93b3 61be 1f10 173e fd1a c2bd 3aeb 593d
000000d0: 56a3 e33d 63d2 f9bd 1806 05be 9fc3 17bd
000000e0: 6ef8 91be 79d3 1cbe d5c3 223e 8eae 2c3e
000000f0: 8776 02be 56ea 67be f366 933e f1f2 11be
00000100: 52bd 45be 9a8b af3b 702c 68bd 424c 1bbd
00000110: 7938 5c3e 02ab 95be bb30 943e 9990 323e
00000120: 7578 a1be c64b 12be e890 2abe eb70 3a3d
00000130: 53c8 50be e08f af3d bc57 a4bd 162c 353e
00000140: 7f0b 513e 4dad 4abe 9650 6ebe 532e a9be
00000150: 2cd2 063e 3f19 82be cf07 7a3d 9324 8ebe
00000160: 83f7 1ebe 7bc4 d13d 405f 613e 050b 99bd
00000170: 5533 fb3d 8005 0e3d 897f 733e 3388 96be
00000180: 162a bf3c b901 323e 06ab 82bd 0a35 5e3e
00000190: bcf3 123e 8598 863d 98ef 42be bf6c 843d
000001a0: b7ab 0d3e 8f1a 3abe b038 8bbe 57c5 193e
000001b0: a3ef 4ebe e0fd 4abe 12c9 91be 0f71 4a3e
000001c0: 8951 fb3d 25b1 0d3e 398a 2ebe dc8a 023c
000001d0: 440d 203e 4a7c b1bd 666e 9b3e 8da4 2ebe
000001e0: 8eab f93c e345 c63c abf2 f53d e4af 343e
000001f0: 3441 a6be 766e 5bbe e85b 2fbe 1230 d73d
00000200: e55e 77be 254a 9dbe acab 073e 517a 983d
00000210: 73ba 97bd 5e53 e23d 531b 3ebe 0300 53bd
00000220: 1666 a3bd 8b92 7abe 2dc6 303e c850 9cbe
00000230: a8b4 063e 2a9c 8dbe 3b50 273e 5ae1 263d
00000240: 152b 47be a36e 37be ff7a 1dbe 1ded 2c3e
00000250: ca4b c7bc 59c0 e33d b7d8 2f3e 1dcb 4bbe
00000260: 10a8 f63d 6a5c 2abd 5958 99be b0c4 593e
00000270: 5bdf c03d 62b3 1d3e e584 80be fee4 e43c
00000280: 1aa7 cd3b 51dd 9bbe 9290 8ebe c843 2bbd
00000290: 0b95 afbb e25e a2bd 3105 2bbe 0afb 833d
000002a0: 31d4 103e b749 9439 a046 503e 3679 b13d
000002b0: cddd fbbd 5658 1fbe b3d7 083e f7cc 343d
000002c0: 435a 263e 1d11 20bd 5334 153e 4c7c 41be
000002d0: deb1 48be a229 5e3e 5826 50be 184f 6fbe
000002e0: 7ac2 6c3e 65b8 0ebe 8aca 8fbe a549 76be
000002f0: 014c 0b3e 7721 383d d495 ecbd 2226 eb3c
00000300: 3f2b fabd d1f2 69bd 21eb 5dbe 7d2c e2bd
00000310: e223 2a3e 9aea edbd e457 8a3d f3fa 063e
00000320: f261 253e 8ddf 4e3e c72e 27be 21d8 6e3d
00000330: 4516 013e f6bd 55be e6b4 3dbe 8d8a 21bd
00000340: 8275 a93d 223b 243e 13fe b23d 0c38 da3d
00000350: 8d3c 98be a007 0b3e ab24 923d 1631 2f3e
00000360: 8dbe 98be 20bf 4abe a0cb ccbc 85f4 78bd
00000370: e40a 99bd bdee 8abe a9f4 06be 3f42 03be
00000380: da78 653e 89ae 6e3d 7466 1ebd cfff 56be
00000390: 4014 153e 3e77 fbbd 5830 993d f98e a8be
000003a0: 8828 e7bd 5cdc d43d 624b ca3c 749b 223e
000003b0: fe4e 2a3e 0ec5 81be 9093 29be d860 233d
000003c0: 9f20 71be 5f2d c23d a7cd 433e 7abe 49be
000003d0: 8b1d 86be cb8f f1bd 0de6 fcbd e3f8 663e
000003e0: a8ee 2abe 9027 1a3e 8530 6d3d b91c 69be
000003f0: e1b0 0f3e d4f6 91be 73da 9fbd 3593 e33d
0.22043611 -0.00639181 -0.19194087 0.21464638 -0.2459683 0.075491205 -0.15864629 -0.25665817
0.066998 -0.2218604 0.07080062 0.09683582 -0.20171165 0.15876845 0.22134735 0.12879217
-0.24067551 0.18058747 -0.0444067 0.0052927574 0.19319528 -0.19583966 -0.13052838 -0.17761837
-0.05606391 0.24314162 -0.1665773 0.023866989 -0.23045072 0.09140152 -0.0208726 0.17590304
-0.023368986 -0.08874131 0.21430618 0.011409563 -0.2739487 0.2550953 -0.17470254 0.14317116
-0.12556496 0.00036566466 0.15261304 -0.25061494 0.20175438 0.008480912 -0.115444 0.14978832
-0.22041158 0.14752243 -0.09477804 0.053202845 0.11115138 -0.12198331 -0.12990606 -0.037051793
-0.2850985 -0.15315045 0.15895016 0.16863462 -0.12740527 -0.22647986 0.28789482 -0.14252831
-0.19310501 0.005357218 -0.056683004 -0.037914522 0.21505918 -0.2923203 0.28943428 0.17437972
-0.31537214 -0.14286718 -0.1665684 0.045517843 -0.20388918 0.08572364 -0.080245465 0.17692599
0.20414542 -0.19792672 -0.23272929 -0.33043155 0.13166112 -0.25409886 0.061042603 -0.2776228
-0.15524106 0.10242554 0.22008991 -0.07472805 0.1226565 0.034673214 0.2377912 -0.29400787
0.023335498 0.1738347 -0.063802764 0.2169992 0.1435079 0.065720595 -0.1903671 0.06466054
0.13835035 -0.18174194 -0.27191687 0.15016685 -0.20208602 -0.19823408 -0.28473717 0.19769691
0.12271411 0.13837107 -0.17044915 0.007967677 0.1563006 -0.086662844 0.30357665 -0.17054959
0.030477311 0.024203246 0.12009176 0.17645222 -0.3247162 -0.21428856 -0.17124903 0.105072156
-0.24157293 -0.3072063 0.13249081 0.07445205 -0.07408609 0.11051057 -0.18565111 -0.051513683
-0.07978456 -0.24469964 0.17263098 -0.3053038 0.13154852 -0.27658206 0.16339199 0.040742256
-0.19450028 -0.17913298 -0.1537895 0.16887327 -0.024328131 0.11120672 0.17172514 -0.199017
0.12043774 -0.04159204 -0.29950216 0.21266437 0.09417602 0.1540046 -0.2510139 0.027941223
0.0062760236 -0.3044229 -0.27844673 -0.041812688 -0.0053583435 -0.07928254 -0.16701199 0.06444366
0.14143445 0.00028283682 0.20339441 0.08665697 -0.122981645 -0.15561041 0.13363533 0.044140782
0.1624537 -0.03907882 0.14570741 -0.18895072 -0.19599101 0.21695569 -0.20327127 -0.23370016
0.23121062 -0.13937528 -0.28084213 -0.2405153 0.13603212 0.04495379 -0.11552015 0.028704707
-0.1221528 -0.057116333 -0.21671726 -0.11043642 0.1661525 -0.11617012 0.06755045 0.13181667
0.16150644 0.20202465 -0.16326438 0.058311585 0.12606151 -0.20873246 -0.18526039 -0.039438773
0.08274366 0.16038182 0.08739867 0.10655221 -0.29733697 0.13577127 0.071359 0.17108569
-0.2983288 -0.19799471 -0.02499944 -0.060780067 -0.0747278 -0.27135268 -0.13179268 -0.1281824
0.22409382 0.05827192 -0.038671926 -0.2099602 0.14558506 -0.12278603 0.07479924 -0.3292158
-0.112870276 0.10393593 0.024694148 0.15879613 0.16631696 -0.25345653 -0.16560197 0.03988728
-0.235476 0.0948131 0.19121419 -0.19701567 -0.26194414 -0.117950045 -0.12348566 0.2255588
-0.16692603 0.15054154 0.0579076 -0.22764863 0.14032318 -0.28508627 -0.07805338 0.11112062

fc3.bias f4 [5]
00000000: cf2b 05bd bb9e 933d f087 b2bd 5466 2f3d
00000010: 6354 80bd
-0.032512482 0.0720801 -0.08717334 0.042822197 -0.062660955
